FacialExpressionRecognition/model/deep_emotion-500-128-0.005.pt (torch, 275511 bytes, 24 tensors)

conv1.weight f4 [10, 1, 3, 3]
000000 f6 1a 14 c0 b6 c4 9c 3f bc 3e 35 40 2c e3 f5 bf
       -2.3141456 1.2247531 2.831954 -1.9209952
000010 81 e1 ba 3d 31 4b cb 3e e9 5d 18 bf 40 39 42 3f
       0.09125043 0.39705804 -0.59518296 0.75868607
000020 79 92 ae be bc 15 fb 3f 0c 02 4b 3f 28 23 01 40
       -0.34096125 1.9616008 0.793 2.0177708
000030 92 cb 78 3f 91 c3 8a bf 37 c2 f3 be 6c ac 46 bf
       0.97185624 -1.0840932 -0.47609112 -0.77606845
000040 f4 3d ad bf 78 60 f7 bf 38 3b 3a 40 06 85 bd 3f
       -1.3534532 -1.9326315 2.9098644 1.480622
000050 74 37 66 bf 00 54 41 3f 5e 08 b6 3f 45 5a ce bf
       -0.89928365 0.755188 1.4221303 -1.6121298
000060 b2 a5 27 c0 56 1b b6 be d4 20 b0 bf eb ec d1 3f
       -2.6194882 -0.3556773 -1.3760018 1.6400427
000070 0d 7e c4 3f e4 83 39 3f 98 8d ac bf d6 e1 9c bf
       1.5350968 0.72466874 -1.3480711 -1.225642
000080 8a 9c 25 bf 0e 5f ac bf 5a f2 36 c0 bd 17 2f 3f
       -0.64691985 -1.3466508 -2.858542 0.68395597
000090 06 9f bd 3f e6 ae ea 3e 52 9a da 3e 18 62 bb bf
       1.4814155 0.45836562 0.42695862 -1.4639311
0000a0 60 80 8d bf 3a 6f 16 c0 89 9b 89 bf ca d1 4c bf
       -1.1054802 -2.3505387 -1.075059 -0.8000761
0000b0 4b 56 23 be d1 39 4a 40 07 d6 e0 be 8d 5c ad bf
       -0.15950887 3.1597788 -0.4391329 -1.3543869
0000c0 d9 bb 7d bc ab 46 04 bf f7 f5 31 c0 c9 71 1b bf
       -0.015486681 -0.5167033 -2.7806375 -0.607205
0000d0 65 fc fe 3e 03 75 f3 3f 83 85 e9 bf cd c1 b8 3e
       0.49801937 1.9020084 -1.824387 0.36085358
0000e0 c2 6c 19 40 d1 37 c6 bf 66 b0 25 c0 64 62 98 bf
       2.397263 -1.5485784 -2.5888915 -1.1905026
0000f0 21 dc 01 40 9e 71 b8 3f 0c ae 1c 3f c8 09 8c bf
       2.0290606 1.4409673 0.61203074 -1.0940485
000100 c9 08 e4 3f ae be 0b bf 4f 6a 74 3e 72 a7 2e 40
       1.7815181 -0.5458783 0.23868679 2.72897
000110 ac f1 79 be 06 10 81 bf 69 38 c3 be bc d5 ef bf
       -0.24408597 -1.0083015 -0.38128975 -1.8737102
000120 ec f3 b6 3c f7 53 26 bf c9 b9 c4 bf 5e 47 c9 3f
       0.022333108 -0.6497187 -1.5369197 1.5724905
000130 fd 96 48 3e cc de 88 bf e8 fc c8 3f b3 16 08 3f
       0.19588847 -1.0692992 1.5702181 0.53159636
000140 c2 91 d2 be b9 b2 8e 3f 01 bf df 3f 71 51 9f be
       -0.4112683 1.1148292 1.7480165 -0.31116822
000150 b6 94 d0 bf c5 30 1e 3f 0a 62 86 3f ce ed cd bf
       -1.6295383 0.61793166 1.0498669 -1.6088197
000160 ea 69 af be 45 30 f1 be
       -0.34260494 -0.4710714

conv1.bias f4 [10]
000000 27 f0 36 3d 1a 31 d7 3e b7 8c e6 be 83 95 f4 bf
       0.04466262 0.4202965 -0.45029232 -1.9108127
000010 54 93 df bf 4f ba 64 3d 0c 4f 55 be 78 3e 8a 3e
       -1.7466836 0.05584174 -0.20830935 0.27000785
000020 5b df 4c 3f d1 d6 30 3f
       0.80028313 0.69077784

conv2.weight f4 [10, 10, 3, 3]
000000 7a c9 49 c0 11 67 80 3e 84 bc 5f 3f 91 fc bf 3f
       -3.1529222 0.25078633 0.87397027 1.4998952
000010 f9 29 0a c0 c3 92 ae be 7d f4 f2 3e d9 ec d6 3f
       -2.1588118 -0.34096345 0.47452155 1.679103
000020 16 a9 71 3f 8a 18 28 3f ba 1b c2 be d4 eb 31 c0
       0.9439863 0.65662444 -0.3791178 -2.7800188
000030 92 4f 22 3f 8c e3 01 3e d6 a9 eb 3c 50 08 92 3f
       0.63402665 0.12684458 0.028767508 1.1408787
000040 65 21 4d bf 6d d5 cb bf bc 0f 5f bf c4 12 11 bf
       -0.8012908 -1.5924507 -0.87133384 -0.5666926
000050 31 c2 1c bf af a2 09 c0 8b 12 d0 bf 18 68 d5 3f
       -0.6123381 -2.1505544 -1.6255659 1.6672392
000060 fd 48 b7 be cf bc 8c bf 86 51 3c 3e e9 25 e3 bf
       -0.35797873 -1.099512 0.18390474 -1.7745944
000070 2c cf 82 bf 3f a3 74 bf e7 3f cc 3f fb d9 5c 3f
       -1.0219474 -0.95561594 1.5957001 0.8627011
000080 8a 17 cd bd 96 24 6d c0 48 a3 a3 bf 55 93 57 c0
       -0.10014255 -3.705358 -1.2784204 -3.3683674
000090 53 4c 2e c0 cc 5b 87 3b 7a 19 59 40 3e d6 50 3e
       -2.7234085 0.004130816 3.39218 0.20394227
0000a0 73 8b 82 bf da 02 91 3f 34 56 ef 3f 44 fb 86 bf
       -1.0198807 1.1328995 1.8698182 -1.054543
0000b0 32 ba db bf 28 42 27 3f 3b a6 3a 3f 32 2c b6 bf
       -1.7166197 0.6533532 0.729099 -1.4232237
0000c0 d6 be 09 c0 84 74 c9 3f 0d 8e 58 3e 9b 57 17 bf
       -2.1522727 1.5738683 0.21147938 -0.5911805
0000d0 e0 8a 8a 3f 1f 5f bc 3e d2 1b 84 c0 2b 42 16 be
       1.0823631 0.36791322 -4.128396 -0.14673679
0000e0 a7 d3 f1 3f dc 8e ae 3f a1 19 bf c0 dc f1 e4 3f
       1.8892716 1.3637347 -5.9718785 1.788631
0000f0 95 5d 8b 3e 54 f4 16 c0 04 c7 29 bf 17 73 11 40
       0.27219835 -2.3586626 -0.663193 2.2726495
000100 72 34 b5 bf 14 8a 98 be 0b f8 44 3e 5c 1e c8 3f
       -1.415663 -0.29792845 0.19235246 1.5634265
000110 57 18 80 bf 63 e5 6a bf 7e 4a e6 3e 0f 2d 8a bf
       -1.0007428 -0.91756266 0.44978708 -1.0795001
000120 68 30 c6 bf dc 86 d5 3f c5 4b 88 3d fc ae 95 bf
       -1.5483522 1.6681781 0.06655077 -1.1694026
000130 e4 00 8e 3f 0a ca 70 3f 46 3f b3 bf e6 00 a5 be
       1.1094022 0.9405829 -1.4003685 -0.32227248
000140 b7 75 b3 3f d9 e3 17 3f ff 7e 33 bf 7f bd 18 bf
       1.4020299 0.5933204 -0.70115656 -0.5966415
000150 a4 3f aa 3f e6 29 31 3f 14 de 4d bf 44 06 17 bf
       1.3300672 0.69204557 -0.8041699 -0.58993936
000160 e3 c8 85 3f 1e bb f0 bf 63 80 3d bb b4 c9 1d be
       1.0451931 -1.8807104 -0.0028915636 -0.15408975
000170 5e a5 cc ba 1c 9d 4e b9 27 21 f7 bd 43 eb 25 be
       -0.0015613248 -0.00019704219 -0.1206687 -0.16203026
000180 aa e5 e7 bd 4f 9a df bc d8 bf 8c bd 18 a9 24 be
       -0.11323102 -0.02729526 -0.06872529 -0.16080129
000190 71 e1 6c be ae fc d2 bc 7a ff e4 bd e2 18 17 be
       -0.23132874 -0.025755253 -0.11181541 -0.14755586
0001a0 0f 01 04 bd e0 9f 43 be e8 f6 51 bd ab da 74 bd
       -0.032227572 -0.19103956 -0.05126086 -0.05977885
0001b0 e9 82 a6 bc d8 a8 12 be b4 09 a8 bd 37 c1 75 bc
       -0.020326095 -0.14322221 -0.08204976 -0.014999679
0001c0 7d 12 03 be e8 dc 98 bd c4 bb 19 3d 82 5f d7 bd
       -0.12800021 -0.074640095 0.037532583 -0.105162635
0001d0 b4 d2 d9 bc 99 c7 71 bd 0e a8 0d ba 9a be e2 bc
       -0.026589729 -0.05902824 -0.0005403765 -0.027678777
0001e0 14 63 06 bc c0 91 95 bd ac 96 25 3e a4 b6 9f be
       -0.008202333 -0.0730319 0.16170758 -0.3119403
0001f0 d0 9c 03 be 27 77 ce bd 62 b0 92 bd 8f a7 e7 bd
       -0.12852788 -0.1008132 -0.071625486 -0.11311256
000200 eb c4 8d bd b5 eb 96 bd 9c b0 c8 bd b5 21 01 3d
       -0.06922325 -0.07369176 -0.097993106 0.031526286
000210 2e 77 23 be 06 e5 7d be 17 ce a4 bd c7 f7 d5 bd
       -0.15963432 -0.24794397 -0.08047121 -0.104476504
000220 0d 98 aa bd 76 68 b5 bd 87 5c 7e bd 62 ca 68 bc
       -0.08329783 -0.08857815 -0.06209996 -0.014208408
000230 7e 23 25 be aa de 14 be ce d8 2c bd eb 27 e7 3c
       -0.1612682 -0.14538065 -0.04219895 0.028217277
000240 d1 00 ba bd 4b 11 40 bd 62 45 75 be b9 83 1e 3d
       -0.09082187 -0.04689149 -0.23952249 0.03869984
000250 1c 56 87 3c 5a d6 de bd 0b f4 13 3d 4d 84 03 be
       0.016520552 -0.10880728 0.03612141 -0.12843437
000260 d4 4e 7e be b0 20 e4 bd 38 e2 3b be 10 e9 2e be
       -0.24834758 -0.11139047 -0.18348014 -0.17081094
000270 29 70 4d be 62 2c 7c bd cc 67 2b bd e7 8c cc bd
       -0.20062317 -0.061565764 -0.041847035 -0.099878125
000280 c9 07 0c bc ef 5b 3f be 29 31 24 be 1b 07 45 be
       -0.008546778 -0.18687414 -0.16034378 -0.19240992
000290 55 fa b6 bd e4 c5 02 be 21 39 34 be ae 6b 39 bd
       -0.08934466 -0.12770802 -0.17599918 -0.045268707
0002a0 50 1c 1f be 24 03 9d bd 22 b0 8b 3c ad 9a a4 be
       -0.15538144 -0.07666615 0.01705176 -0.32149258
0002b0 6b 2a 12 be e4 2c 83 bd 64 46 51 be 36 04 ba be
       -0.14273994 -0.064050466 -0.20437008 -0.36331338
0002c0 e6 10 47 be 34 5b ec bd e4 fa 01 be 2f 81 79 be
       -0.1944004 -0.11540833 -0.12693363 -0.24365686
0002d0 89 74 d7 bd 6b 33 74 be 8f 8c 10 bd 04 c9 22 bd
       -0.10520274 -0.2384774 -0.035290297 -0.039742485
0002e0 cd 05 3f be c8 0e 07 be fa 77 71 bd 96 05 ba bd
       -0.18654557 -0.13189232 -0.05895231 -0.09083097
0002f0 ed dd bf bd 27 16 ef bd 1b b4 4e be 8e 16 86 bc
       -0.09368501 -0.11674147 -0.20185892 -0.016368177
000300 ec 56 4d be 13 16 04 be 75 11 ef bd 31 31 ba 3c
       -0.2005269 -0.12899046 -0.116732515 0.022728534
000310 af 4c 01 be 25 06 d4 bc 17 5b 33 be f4 10 82 be
       -0.12626909 -0.025881836 -0.17515217 -0.2540356
000320 5e e3 9e be c2 fb 62 be 84 9f 02 be 15 c5 96 be
       -0.31032842 -0.2216635 -0.12756163 -0.29447237
000330 fd 64 e3 3d 27 3f 28 bc 26 74 d9 bd 3a e0 52 be
       0.11103246 -0.010268963 -0.10617857 -0.20593348
000340 3d c2 0e bc dd 9f 93 bd 38 40 8f bd c9 18 6a 3e
       -0.008713302 -0.07208226 -0.06994671 0.22861017
000350 fa f3 ba bd 79 da c9 bd d5 88 1b be 04 36 80 bc
       -0.09128566 -0.098561235 -0.15188916 -0.015650757
000360 1e 35 42 be 6c 50 4e 3c 32 8e 6e 3c d4 54 6f be
       -0.18965575 0.012592416 0.014560269 -0.23372203
000370 9b dc 82 bd 24 13 40 be 9e e5 6a be 27 f8 3c be
       -0.063897334 -0.18757302 -0.22939155 -0.18454038
000380 98 db 23 be e7 01 5e be 4b 7c 25 be 9e 0e 3a be
       -0.16001737 -0.21680413 -0.16160695 -0.18169639
000390 64 b3 0c 3c 0d 27 f7 bd cf 44 87 be 71 53 dc bd
       0.008587692 -0.12067995 -0.26419684 -0.10758103
0003a0 56 0c 99 bd 8b 88 60 bd fa c4 16 bd 4d 47 f8 bd
       -0.07473056 -0.054817718 -0.036808945 -0.121229745
0003b0 67 72 2d be 7d 05 96 be 73 d2 ba be e5 7b 05 be
       -0.16938172 -0.29301062 -0.36488685 -0.13035543
0003c0 de 38 39 be 43 18 4c be 5a d6 a4 be b1 f5 7f be
       -0.180881 -0.1993113 -0.32194787 -0.24996068
0003d0 3f a6 4f be 04 a0 54 be 37 d0 4a be 44 ed ec bd
       -0.20278262 -0.20764166 -0.1980599 -0.11568692
0003e0 7a 84 40 be ff c5 94 bb 9c f1 ac bc fb 95 0c be
       -0.18800536 -0.0045402045 -0.021111302 -0.13729088
0003f0 77 c5 63 be 0b dd 60 be 81 62 8f be 19 3c 86 be
       -0.22243296 -0.21959321 -0.2800484 -0.26217726

conv2.bias f4 [10]
000000 61 b8 32 40 cd 91 37 be 89 7f 9b bd 79 a0 4a bf
       2.7925036 -0.17926712 -0.07592685 -0.7915111
000010 4f c4 14 c0 aa c1 f8 bf b1 0b af 3f 5c 87 74 3d
       -2.3244817 -1.9434102 1.3675443 0.0596994
000020 80 f5 0d be 33 95 1c 3d
       -0.13863182 0.038228225

conv3.weight f4 [10, 10, 3, 3]
000000 8d 42 c0 be 26 e2 0e 3f a8 71 cd 3e 1a 7f 6c 3e
       -0.37550774 0.55813825 0.40125775 0.2309536
000010 2c d7 b9 bd f7 47 d2 bf 2e 45 34 be 27 f9 50 3e
       -0.09074244 -1.6428212 -0.17604515 0.20407544
000020 c6 ce 07 bf 64 d4 f9 3d 0b 71 09 be c9 d0 84 3b
       -0.53049886 0.121987134 -0.13422029 0.0040532094
000030 ad ae 7f 3c b3 ff 09 3d ec 61 34 bd 3e 99 f2 bd
       0.015605611 0.03369112 -0.044038698 -0.11845635
000040 6a d0 c7 bd 7e b9 7c bd f8 fc 04 be 2c 6c 1f 3d
       -0.09756549 -0.061700337 -0.12987125 0.03892152
000050 6d c9 ed bd eb 49 89 bc 4b 83 86 3d 35 54 5d 3d
       -0.116106845 -0.01675888 0.06568011 0.054035384
000060 b4 01 bd 3d 27 ea f2 3c 96 38 c6 bc 5a 8b 1d c0
       0.092288405 0.029652668 -0.024196904 -2.4616303
000070 99 03 b3 3f 86 15 95 3f b3 24 4b bf 9d 53 95 bf
       1.3985473 1.1647193 -0.79352874 -1.1666142
000080 87 ec 1b 3e 70 90 0f c0 3d e4 84 3e 24 57 a2 3f
       0.15226947 -2.2431908 0.25955382 1.2682843
000090 da d7 7a c0 12 c2 0e c0 91 86 9c 3f df a9 80 c0
       -3.9194245 -2.230595 1.2228566 -4.020736
0000a0 f5 5a c1 c0 a6 c7 6f c0 fa 78 ea bf 79 33 ef be
       -6.042353 -3.7465606 -1.8318169 -0.46718958
0000b0 37 94 b6 bf f5 e1 b4 bf e9 dc 3e bf 1c 1a 59 bf
       -1.4263982 -1.4131457 -0.7455583 -0.84805465
0000c0 06 b2 79 3e d7 8a 42 3d 2d 10 01 40 13 be 18 bf
       0.24384317 0.04749569 2.0166123 -0.5966503
0000d0 0f c3 b6 be 53 cd 9e 3f b8 bc b3 be 92 4c ac be
       -0.35695693 1.240641 -0.35104918 -0.3365217
0000e0 71 0a 1e bd ca ff 39 c0 d1 5e 94 bf 2d 5e 7c 3f
       -0.038584176 -2.9062371 -1.1591436 0.985812
0000f0 e2 8a 92 be 7c b8 8b bf 74 58 6f 3f e4 d0 4e 3c
       -0.28621584 -1.0915675 0.93494344 0.012623046
000100 ef a0 ec bc cc d3 db 3d 6c 56 09 bc 4d 47 bd bc
       -0.028885333 0.107337564 -0.008382421 -0.023105288
000110 42 e0 98 bd 2a ec ab 3c 88 35 a0 bd d4 0f 7a 3d
       -0.07464649 0.020986635 -0.0782271 0.06105025
000120 6e 15 09 3d 35 67 dc bc 8e 37 98 bc 3f e3 50 3d
       0.033467703 -0.026904682 -0.018581178 0.05099797
000130 52 ba 2c bc 15 50 f9 3b 7c 97 76 3d d9 25 ad bd
       -0.010542469 0.0076084235 0.06020306 -0.084544845
000140 b7 ba 1e bd 80 b3 ed 3b 59 74 31 bc 70 35 18 be
       -0.038752284 0.007254064 -0.010830962 -0.14864135
000150 e2 76 af bc e6 36 5d bc 75 cf 22 3d 37 f4 48 3d
       -0.021418992 -0.013501858 0.039748628 0.049061026
000160 7b 13 b5 3d b5 38 09 be a0 9b c7 bf fe 0c ff bf
       0.08841606 -0.13400538 -1.5594368 -1.992584
000170 8a a3 f7 be 33 6f 84 3f 34 7a 89 3e 37 89 c4 be
       -0.48366958 1.0346435 0.26851046 -0.38385937
000180 69 8d 27 40 fd 23 77 3f b4 24 0d 3f 71 cc 21 3e
       2.618006 0.9653929 0.5513413 0.15800644
000190 c8 96 bc bd 2f 4a 59 3c 69 a6 cf 3c 69 6b 20 bc
       -0.09208447 0.013262316 0.025347905 -0.009791234
0001a0 6d 4e 5a be ba 0b ff bc bd c2 c7 bd 88 08 03 be
       -0.2131898 -0.031133521 -0.0975394 -0.12796223
0001b0 7d e5 23 3e fa 58 6b bc 2a a6 fa 3d 28 15 87 3d
       0.16005512 -0.014364475 0.122387245 0.06595832
0001c0 91 f6 f3 ba 3f 0d 28 bd 7f 70 05 3e 3a ba 79 3c
       -0.0018612911 -0.041028257 0.13031195 0.015242154
0001d0 6b d3 ea bc c3 1f 82 bf f9 17 ae be 2b a3 12 3f
       -0.028665265 -1.0165943 -0.34002665 0.57280225
0001e0 fe fa 83 bf 03 92 a8 3c 32 b6 0a 40 c4 b6 69 c0
       -1.0310972 0.020577436 2.1673703 -3.6517801
0001f0 03 53 23 c0 17 11 cb 3f ea be 91 bf 26 65 69 bf
       -2.5519416 1.586459 -1.1386387 -0.91169965
000200 15 a9 a3 3f 46 7b 04 3e a3 fa a2 3f 79 85 01 bd
       1.2785975 0.1293765 1.2732738 -0.03162143
000210 39 66 28 be 05 e2 b2 3e a3 f1 bf 3e 9c 88 0f c0
       -0.16445245 0.34938064 0.37489042 -2.242713
000220 7e bc aa bf 0e ba e5 3f 41 5b 3c c0 ff 25 3e c0
       -1.3338773 1.7947404 -2.9430697 -2.971069
000230 d7 37 aa 3f 3f 19 02 c0 f1 c1 0e c0 fa 13 26 40
       1.3298291 -2.032791 -2.2305872 2.5949693
000240 e1 ab 01 c0 50 5d 67 bf a4 92 8f 3e 43 d5 1c c0
       -2.0261157 -0.9037676 0.28041565 -2.4505165
000250 e3 36 20 bf 00 52 31 be 58 fc af be b6 1b d4 bd
       -0.6258375 -0.17316437 -0.3437221 -0.10356848
000260 4d e2 97 3e 5d 7e 3e bd 0f 2d 5f bd c1 6a 7f 3d
       0.2966484 -0.04650723 -0.05448633 0.062357668
000270 c6 d8 98 3d 7a ff 85 3c 55 eb de 3d fe 65 aa 3c
       0.07463221 0.016357172 0.1088473 0.020800587
000280 e9 e8 a1 3d d9 a0 aa bb 06 aa 4f 3d ce 49 86 bd
       0.07905752 -0.005207163 0.050699256 -0.06557046
000290 54 0f 07 3e 60 fb 04 3d aa 7f e4 bd d3 28 82 3d
       0.13189441 0.032466292 -0.111571625 0.06355443
0002a0 be bd cb bd c5 00 79 3d 8c cd 04 bd 2c 9d 03 3d
       -0.099483 0.06079175 -0.032422587 0.032132313
0002b0 b3 1e 8f bc 31 9e 30 3d ff df dd 3d 6a d7 8c bc
       -0.017470693 0.043119613 0.108337395 -0.017192561
0002c0 e3 2c 8d bd a4 cb bc bc 96 d3 17 bd 48 28 03 be
       -0.06893327 -0.023046322 -0.03706702 -0.12808335
0002d0 a7 a2 a9 be 6e ea b1 be 6d c5 ad be 35 68 9a be
       -0.33131906 -0.34749168 -0.33939686 -0.3015763
0002e0 2a 2b 25 be 32 7e 57 be 29 b2 de bd 32 3b 24 bc
       -0.16129747 -0.21044233 -0.10873825 -0.010023879
0002f0 be 58 20 be 47 6b 83 bd 22 96 32 3d a1 fb 05 3e
       -0.15658852 -0.06416946 0.04360021 0.1308427
000300 7b 3c 75 bc ec 66 b0 3d 81 4f f0 bc c3 dd 95 3d
       -0.014968033 0.08613381 -0.029334785 0.07317688
000310 07 8a f3 3b 67 80 74 3b 5a f7 e8 3d 0e 6c 5c 3e
       0.0074322256 0.003730798 0.113753036 0.21525595
000320 ad ac e6 3d 45 0d 66 3e 83 fc 59 3c 01 bd e6 3d
       0.11263404 0.22466 0.013304832 0.112665184
000330 93 f6 7f 3e b0 b0 bf 3e d7 f0 8b 3e 66 b2 83 be
       0.24996404 0.3743949 0.27332184 -0.25722045
000340 05 28 14 be 68 2d ab 3c d8 41 4d bd 99 67 7a be
       -0.14468391 0.020895675 -0.05011162 -0.24453582
000350 c4 ae 1c bf 49 c2 f2 bd 18 48 94 3b 83 78 8b bd
       -0.6120417 -0.11853463 0.004525196 -0.06810095
000360 8b 88 b0 be 3f 91 8c be 5a 07 69 be 43 77 de be
       -0.34479174 -0.27454564 -0.2275671 -0.43450364
000370 7b a3 c0 be 6c 21 5a be 78 80 ab be 4b 04 3b bd
       -0.37624726 -0.21301812 -0.3349645 -0.04565839
000380 47 0f 13 bf 3f 26 b1 be 89 91 dd be cb 1d 19 bf
       -0.57445186 -0.34599492 -0.43275097 -0.59811085
000390 6b e9 d9 be d8 cb e3 be d6 73 5c bf 39 d1 a3 be
       -0.42560896 -0.44491458 -0.8611425 -0.31995562
0003a0 3c 3a 93 be d8 96 04 bc 4b d6 c1 be 06 01 e6 bd
       -0.28755367 -0.008092605 -0.37858805 -0.11230664
0003b0 9e 01 87 bd 86 5a 59 3c 5b 02 71 be 9d 76 06 bf
       -0.06592105 0.013266211 -0.23536055 -0.5252474
0003c0 1b 08 3f bf 71 06 d4 be 0b 1d 62 3b 17 73 13 3d
       -0.7462174 -0.41411164 0.0034502174 0.03599843
0003d0 90 2b eb 3c 89 e2 c9 bd cd e0 b2 bd 20 98 8c 3d
       0.028707296 -0.09857661 -0.087342836 0.06864953
0003e0 2d 18 db bc 3d c0 94 3d 88 71 06 bd 1a d5 c1 bd
       -0.026744926 0.07263229 -0.032823116 -0.09464474
0003f0 5e 82 bb 3c 0b 01 85 bd ba de 06 3e e8 36 b7 3d
       0.022889312 -0.064943396 0.13170901 0.089460194

conv3.bias f4 [10]
000000 fd db 7d 40 44 29 53 41 3b 82 06 bf 60 25 a4 be
       3.966552 13.197575 -0.52542466 -0.32059765
000010 83 3e 80 41 4a 73 90 41 5f 57 f6 3f b9 09 53 41
       16.030523 18.056293 1.9245414 13.189874
000020 1a 17 8b 41 17 cc d4 40
       17.38628 6.6499133

conv4.weight f4 [10, 10, 3, 3]
000000 1a ae 7f c0 d6 2a ca bf b2 21 71 c0 7d ce 7f 3f
       -3.9950013 -1.5794322 -3.7676816 0.9992445
000010 25 c3 3c be 8f 01 7d bd d7 94 df be 8f e5 07 bf
       -0.18433817 -0.061769065 -0.43668243 -0.53084654
000020 51 87 e3 3f e2 71 4b c0 03 11 7f c0 96 0b d8 bf
       1.777567 -3.1788259 -3.9854133 -1.6878536
000030 21 05 95 3e bb e6 b9 3f 69 08 58 3f b9 8b 9c bf
       0.29105476 1.4523538 0.8438783 -1.223014
000040 4a f0 9b 3f e5 c6 94 bf b0 6f 93 3e 66 ef 17 be
       1.2182705 -1.1623198 0.28796148 -0.14837417
000050 08 ce 49 be 79 71 84 be 70 4f e8 bc 6e 7d fc 3e
       -0.19707501 -0.25867823 -0.028358191 0.49314445
000060 7a 85 3b 3c 9e a8 26 bf ba 52 8e 3e 7e a5 59 3e
       0.0114453975 -0.6510104 0.2779749 0.21254537
000070 04 95 a6 3d 0f e3 3a 3e 8d 69 51 3d 1c 71 be 3c
       0.08133891 0.18250678 0.05112605 0.023247294
000080 c4 7f 27 bd 1a 51 d5 3d 05 e8 28 3d 3d 01 01 3d
       -0.04089333 0.104158595 0.041236896 0.03149532
000090 f9 10 a6 bf 87 40 75 be 04 49 bb c0 e8 1c 15 bf
       -1.297393 -0.23950396 -5.852663 -0.5824723
0000a0 9d 15 bd bf 88 d5 99 bf 5d 51 fa 3f 46 89 9c bf
       -1.4772221 -1.201829 1.955608 -1.2229393
0000b0 a9 27 ab 3f 40 9f 85 40 ae 4c 7f bf 74 65 e0 3e
       1.3371478 4.1756897 -0.9972638 0.43827403
0000c0 c3 47 f8 3f 30 81 6f bf ea 29 16 3f 73 3d 66 40
       1.93969 -0.935565 0.58657706 3.5975006
0000d0 31 d2 16 40 a5 a3 30 3f 19 b4 2e 3e 05 3f fd be
       2.356579 0.689997 0.1706089 -0.49462143
0000e0 e6 5a 36 c0 ae c2 60 bf cb 6f 28 3e 9e 6e 29 bf
       -2.849298 -0.8779706 0.16448896 -0.66184413
0000f0 ee 7e 5e 3f 98 af d0 3e 84 76 ae bf 06 ff b6 3f
       0.8691243 0.40758967 -1.3629918 1.4296577
000100 35 0c c5 3e 79 79 86 bf c5 3e 97 bf 79 0d 53 c0
       0.38485876 -1.050582 -1.1816031 -3.2976973
000110 ca 05 70 c0 77 60 81 bf c4 11 9e bf 89 cf e7 bf
       -3.7503533 -1.0107564 -1.2349172 -1.811021
000120 37 70 cb bf d8 c0 01 be 36 aa 1d bf fe 23 b7 3e
       -1.589362 -0.1267122 -0.61587846 0.35769647
000130 99 26 2c bf de e2 a4 bf b6 e7 24 3f ff cd 96 bf
       -0.67246395 -1.2881734 0.6441606 -1.1781615
000140 ed 0f 19 c0 9a 69 8f 3e 1f 77 2e 3e b7 6b 8f bf
       -2.391597 0.28010255 0.17037629 -1.1204747
000150 f0 54 1c bf db c9 ec bf b0 56 3c 3d 7b e1 6e be
       -0.61067104 -1.8499101 0.04598111 -0.23328201
000160 70 76 30 3f ee b4 31 bf dd 20 77 3e 30 14 e6 3f
       0.6893072 -0.694167 0.2413363 1.7974911
000170 32 7c c2 3f 86 36 7e bf b8 6e e2 3e c5 8c 92 3f
       1.5194151 -0.99301946 0.44225097 1.144921
000180 b4 f1 8e 3f 05 a5 db be 84 96 0b bd 70 df 46 c0
       1.1167512 -0.42899337 -0.03407909 -3.1073875
000190 be 02 84 3e 9a e9 60 bd 14 02 73 c0 9d c0 94 3e
       0.25783342 -0.05491028 -3.7970018 0.29053202
0001a0 1e 55 6a be 85 e9 f8 be c1 1c f7 c0 c8 16 ab c0
       -0.22884032 -0.4861566 -7.72226 -5.346531
0001b0 25 9d 0d 3e 4e 92 55 3e 81 66 f6 3d 70 d5 2b 3e
       0.13829477 0.20856592 0.1203127 0.16780639
0001c0 a5 08 73 3e 98 b6 4b 3d 97 75 31 3e d6 20 a3 3e
       0.23733766 0.04973468 0.17330013 0.3186099
0001d0 e2 2b 90 3e 78 3d 4c 3e 06 97 0b be 56 3c 37 be
       0.2815848 0.19945323 -0.1363183 -0.1789411
0001e0 0d da 95 3d 42 fd 58 3d 28 c2 46 3c c4 3e 33 3e
       0.073169805 0.0529759 0.012131251 0.17504412
0001f0 b2 87 46 be 7d 07 bb bd 95 bd 30 be fe 73 26 3e
       -0.19387701 -0.09132288 -0.1725982 0.16255185
000200 72 79 3e c0 3a 4a 43 3f da 64 47 3f 3b 8d 15 c0
       -2.9761624 0.76285136 0.7788826 -2.336745
000210 f7 d4 44 3f b5 6a 04 bf 33 67 8a bf b7 19 93 be
       0.7688746 -0.5172532 -1.0812744 -0.28730556
000220 eb 4f 84 bf 73 f9 81 be 1e 0a 0d bf 9b aa dc be
       -1.0336889 -0.25385627 -0.5509356 -0.43098912
000230 67 a7 22 be 40 58 bb be 57 b4 fe bf f7 16 74 c0
       -0.15884171 -0.36590767 -1.9898785 -3.8139017
000240 a3 1e 91 3f ad cf a3 3f bb 07 05 40 b6 6f 13 40
       1.1337475 1.2797753 2.0785968 2.3036933
000250 ac 41 aa 3f f5 81 16 bf 58 51 f9 3f 80 13 44 3f
       1.3301291 -0.5879205 1.9477949 0.76592255
000260 b1 34 12 40 d1 03 2f c0 b0 63 ad bf 40 87 3e bf
       2.284466 -2.734608 -1.3546047 -0.74425125
000270 e6 19 09 c0 30 1a 84 c0 8f 9d 4d c0 69 13 df bf
       -2.1422057 -4.1281967 -3.2127416 -1.7427799
000280 34 7c 13 bf b3 11 24 bf ad 4f 48 3f b4 7e 2b 3e
       -0.57611394 -0.64089507 0.78246576 0.16747552
000290 9f 83 15 bf f6 44 4a 3f b2 dc 0c 40 dc cf b7 bf
       -0.5840396 0.79011476 2.2009702 -1.4360309
0002a0 b6 7e 32 40 4e 29 cf bf b5 d1 90 c0 8f 3e e4 3e
       2.7889838 -1.618448 -4.525599 0.44578978
0002b0 c9 7d 39 bf 37 dc cc bf f2 73 a7 be b4 31 cf be
       -0.7245756 -1.6004704 -0.32705647 -0.40467608
0002c0 a7 17 01 3f ac e5 27 3d 52 19 e4 be 5c 6e 0d bc
       0.50426716 0.040990517 -0.44550568 -0.008632269
0002d0 6f b6 cc bf 19 96 c1 3f 61 6d 85 3f 0e e4 11 40
       -1.5993174 1.5123931 1.0424005 2.2795444
0002e0 44 a7 7f 3e c1 42 03 40 61 0a 69 bd 78 b0 98 be
       0.2496615 2.0509493 -0.056894664 -0.29822135
0002f0 c3 20 ac 3f 28 e1 70 c0 17 85 09 be d9 b4 4f 3f
       1.3447498 -3.7637424 -0.13429676 0.81135327
000300 a1 3a 52 bf 2e 37 c2 bf 04 eb af be f8 87 30 c0
       -0.8212071 -1.517309 -0.3435899 -2.7582989
000310 ac 6b a0 bf 39 8d 88 bf 41 c3 2a 3e cd c6 70 be
       -1.2532859 -1.0668098 0.16676046 -0.23513336
000320 31 5c 27 3e 1f 16 6b bc 00 81 23 bf 5c 52 a0 bd
       0.16343762 -0.014348536 -0.63868713 -0.07828209
000330 3d ad 0f 3e fd 01 59 3d 59 a1 05 be c0 c5 bd be
       0.14030929 0.05298041 -0.1304983 -0.37064934
000340 46 cd b9 bc 37 be 96 3e f9 fc ab bd a0 90 81 3e
       -0.02268089 0.29441997 -0.0839786 0.25305653
000350 a8 9c ae 3c bf 10 9f bd db a6 ec bd 34 8b fc ba
       0.021314934 -0.07766866 -0.11555263 -0.001926756
000360 30 06 3e bf ba 05 ad bf 69 c6 13 c0 46 c5 4e 40
       -0.7422819 -1.3517373 -2.308985 3.2307906
000370 0d 22 9a bf 1b 4a 5d c0 3d 9b 6d 40 f4 72 26 40
       -1.2041641 -3.457648 3.7126 2.6007662
000380 9b 6b a8 bf 3f 74 81 bf 9d 4f 6c be 4f 27 36 3f
       -1.3157839 -1.01136 -0.23077245 0.7115373
000390 65 ef 76 3e a8 81 50 3f 9f 3a dc bf c0 fd 89 bf
       0.2411476 0.8144784 -1.720539 -1.0780563
0003a0 ff 9f 0d 40 0d 42 9b be c4 06 96 bf 0f 03 9d bf
       2.2128904 -0.3032383 -1.1720815 -1.2266558
0003b0 c8 14 ff be 61 15 63 3e 8d 4e 44 bf 67 51 f8 bd
       -0.49820542 0.22176124 -0.7668236 -0.12124901
0003c0 76 45 d0 3f e1 ed a0 bf 2b 5e 6d bf 79 e1 f3 bf
       1.6271198 -1.2572595 -0.92721814 -1.9053184
0003d0 5f 6b 82 c0 68 b4 1a c0 3b 16 32 c0 d3 ea 8d bf
       -4.075607 -2.4172611 -2.7826068 -1.1087288
0003e0 64 31 01 bf 61 61 d9 3f 0a ce cb 3f 0a 30 33 bf
       -0.5046599 1.6982843 1.5922253 -0.69995177
0003f0 c9 b5 82 3f 8b 6a 33 3c 3f d2 b3 bf 55 26 9e 3f
       1.0211726 0.010950695 -1.4048537 1.2355448

conv4.bias f4 [10]
000000 e9 5e 5c 3d 9a a6 ad bd 7b 9f 01 3d 42 b9 45 3e
       0.05380145 -0.08479042 0.031646233 0.19308951
000010 4e 21 b7 bd ef 37 6c 3d f7 f8 10 3e 70 a6 0c 3e
       -0.08941899 0.05767053 0.14157473 0.13735366
000020 42 e8 80 3b 67 af 2b 3d
       0.0039339373 0.041915324

norm.weight f4 [10]
000000 b7 99 4e 3e 2d d1 8e 3e 95 db 8a 3e 48 37 85 3e
       0.20175825 0.27893963 0.27120653 0.2601874
000010 35 4c a5 3e 3a 6c 0c 3e b5 5a a6 3e 58 7b ae 3e
       0.32284704 0.1371316 0.3249108 0.3407848
000020 6a 1c 1c 3e b9 81 b4 3e
       0.15245214 0.3525522

norm.bias f4 [10]
000000 ce 68 62 be eb b7 c0 be 11 1d 8c be 36 c2 8e be
       -0.22110292 -0.37640318 -0.27365926 -0.27882546
000010 ab 2d a6 be 8a 00 4c be a7 64 a1 be 52 18 9d be
       -0.32456717 -0.1992208 -0.31522104 -0.30682617
000020 e3 5e 3a be a3 c1 b3 be
       -0.18200259 -0.3510867

norm.running_mean f4 [10]
000000 b2 f5 5d c4 50 ca 4d c4 86 d4 b7 c4 7c c6 05 c4
       -887.839 -823.16113 -1470.6414 -535.1013
000010 ca 46 af c4 4e df 1c c2 ea 28 8f c4 63 db dd c4
       -1402.2122 -39.21807 -1145.2786 -1774.8558
000020 07 59 a4 c2 dd 68 41 c4
       -82.17388 -773.6385

norm.running_var f4 [10]
000000 82 bf 9a 48 e2 91 cd 48 21 94 cd 48 38 46 b6 48
       316924.06 421007.06 421025.03 373297.75
000010 5f 67 42 49 64 46 92 48 bd a1 74 49 95 f7 5d 49
       796277.94 299571.12 1.0020118e+06 909177.3
000020 74 b9 a1 48 20 d5 fe 48
       331211.62 521897.0

fc1.weight f4 [50, 810]
000000 19 90 af bd 0a a2 56 bd c0 6c ed bd 51 ca ba bc
       -0.08572406 -0.052400626 -0.11593008 -0.02280155
000010 60 60 c6 bd 16 9a b2 bc 04 cf 2f ba 18 16 f6 bc
       -0.09686351 -0.02180199 -0.0006706568 -0.030039832
000020 08 95 29 bd 0c 32 3e bd 53 4d 47 bd f4 8a cd bc
       -0.041401893 -0.046434447 -0.048657726 -0.025090672
000030 51 3c b5 bc b2 85 42 bd ac df 8f bd d4 d0 94 ba
       -0.022123488 -0.047490783 -0.07025084 -0.001135374
000040 42 a1 2c bd 26 00 1c bd 0e a3 6e bd 09 cb 02 be
       -0.042145975 -0.03808608 -0.05826097 -0.12772764
000050 0d ed a6 bd fa 19 28 bd 79 01 5a be e0 21 0b bd
       -0.081506826 -0.0410404 -0.21289624 -0.033967853
000060 88 06 b2 bc 18 37 1c bc 16 01 e9 3b 05 fa 9e bd
       -0.02173163 -0.00953462 0.007110725 -0.07762531
000070 5b 56 85 bd 1d 00 0d bd a2 e7 35 bd c2 3b 90 bc
       -0.065106116 -0.034423936 -0.044410355 -0.01760662
000080 42 52 9f bc 20 55 0b bd 34 99 91 3c e7 8e 96 bc
       -0.019448403 -0.03401673 0.017773248 -0.018378688
000090 ff fd f1 bc d5 56 65 3d dc da 20 bd 3a 2e 82 bc
       -0.02954006 0.055991013 -0.03927122 -0.015891183
0000a0 a2 40 25 bd bf 94 84 bd c6 b3 df bc 75 9e 52 bc
       -0.04034484 -0.064736836 -0.027307402 -0.012855162
0000b0 72 de 07 b9 bc e7 2a bc 6d d9 f3 bc eb 86 68 bd
       -0.0001295747 -0.010431226 -0.029766763 -0.056769293
0000c0 a2 26 32 bc 3d 53 fc bc 9a 7a 5f bc 6a f2 3c bd
       -0.010873469 -0.03080141 -0.01364007 -0.04612962
0000d0 47 22 7d bd a2 41 19 3c 38 a7 30 bd d5 9c 2a bc
       -0.061800268 0.009354027 -0.043128222 -0.010413368
0000e0 2a 49 14 bd 73 d4 13 bd 1f bd 89 bc 29 51 cc 3c
       -0.036202587 -0.03609128 -0.016813813 0.024941044
0000f0 0a aa 02 bb 9b 05 93 bc 67 f1 b3 3c 62 ec 81 bd
       -0.0019937777 -0.017947009 0.021965696 -0.063439146
000100 74 ad 2a bd a0 22 24 bd 74 32 33 bd e1 0a a2 bc
       -0.041669324 -0.040072083 -0.043749288 -0.019780578
000110 e1 e5 da bb 6f 8f 07 bc e6 7e a1 bd 20 ea 4a bc
       -0.0066802357 -0.008273943 -0.07885532 -0.012384921
000120 0d 45 1d bb a7 11 ba 3c 10 54 14 bd ad 4d 7e bd
       -0.0023997456 0.022713495 -0.03621298 -0.062085796
000130 f1 72 b6 bb 11 91 44 bd 66 86 95 bd c1 a2 89 3c
       -0.0055679013 -0.04798991 -0.07301025 0.01680124
000140 0d 3c 01 bd bf d4 f4 bb e1 ab 0e bd 36 40 93 bd
       -0.03155141 -0.0074716504 -0.034831885 -0.07189982
000150 ce 4b 28 bd 3a 49 18 bd bb 9d 50 bd ae 73 72 bc
       -0.041087918 -0.03717921 -0.050931673 -0.014798088
000160 8a 0a f9 bc 5e c7 a5 bc e9 9a 22 3c 12 04 42 bb
       -0.030400533 -0.020236667 0.009924629 -0.0029604477
000170 8e b1 16 bc c8 31 06 3d d2 ec f8 3c 84 87 02 be
       -0.009197606 0.03276232 0.030386362 -0.12747008
000180 2c 46 a9 bc dd 6f a7 bc a9 08 92 bd 46 9e e7 bc
       -0.020663343 -0.020439083 -0.07130558 -0.028273713
000190 55 42 0f bd 4a f2 12 bd 53 32 92 3d ad 73 aa 3c
       -0.03497537 -0.035875596 0.07138505 0.020807112
0001a0 81 d1 ce 3c 8a d4 ff 3a 0d 92 14 39 8b 9d 93 bc
       0.025246384 0.0019518298 0.00014168788 -0.018019458
0001b0 a4 d5 f1 bc 7a 89 48 3d 9a 84 1f 3c d0 42 32 bd
       -0.029520817 0.048959233 0.0097362045 -0.04352075
0001c0 68 d7 0d 3b 14 d6 7d bd b0 84 0f bd c0 4e c9 bc
       0.0021643285 -0.06197174 -0.03503865 -0.024573684
0001d0 dc e3 59 bd fe fb 4d bc 93 0b 38 bc 91 81 95 bd
       -0.05319582 -0.012572287 -0.011233228 -0.073001035
0001e0 15 52 86 bd c9 34 ab bd ad 2f 9b bc 29 40 a3 bd
       -0.06558625 -0.08359677 -0.018943632 -0.07971222
0001f0 e6 44 88 bc 8d 8e 0e bb 28 ea f6 bc 48 0c 87 bc
       -0.016634416 -0.0021752447 -0.030140951 -0.016485348
000200 d3 aa 65 bc e5 fa 88 bc 6d 1e 80 3c 34 a7 89 bd
       -0.014017778 -0.016721198 0.015639508 -0.067213446
000210 a3 c5 11 bd 5c 21 78 bd 5e 74 42 bd 3d 88 84 3d
       -0.03558887 -0.06057869 -0.047474258 0.06471298
000220 56 2f 90 bd 56 81 98 3c 05 63 f3 3c 4b 95 b5 3c
       -0.070402786 0.01861636 0.029710302 0.022165915
000230 dc ba 12 bd 89 93 f9 bc b0 98 91 bd 32 1b e0 bc
       -0.035822734 -0.030465858 -0.07109201 -0.027356718
000240 66 e4 80 bd 0f 6f b4 bc 40 1a 65 3c 69 e6 41 bd
       -0.062935635 -0.022025613 0.013983309 -0.047338877
000250 b0 41 68 3c a4 60 f3 bc 6a 4b 63 bd b2 18 2f bd
       0.014175817 -0.029709168 -0.055491842 -0.04274816
000260 db e0 d6 bc 30 82 60 bc 64 9d c9 bc af 8a 00 bd
       -0.026230266 -0.013702914 -0.024611183 -0.03138226
000270 27 78 b1 3c 94 cf 0d bd 31 de 52 bd 39 81 59 bd
       0.021663738 -0.03462179 -0.05148143 -0.053101752
000280 5c c7 7c bd 39 bc b6 bd 8e 14 ce 3c 30 10 ba 3c
       -0.06171356 -0.089226194 0.025156286 0.022712797
000290 17 6d f3 3c ff 7a 5f bc b4 c7 72 bd 9e 79 59 3c
       0.029715104 -0.013640164 -0.059272483 0.013273625
0002a0 e6 8b d1 bc f4 6a 83 bc 23 87 31 bd ff 88 2b bd
       -0.025579404 -0.01604221 -0.043341767 -0.041878697
0002b0 5c 5f 51 bd 05 9f 2a bc 3f 09 9b bc 6c 64 13 bd
       -0.051116332 -0.01041389 -0.018925307 -0.03598444
0002c0 fd 1f 07 3d 47 ef 65 bc 33 bb ab bc 25 e6 15 bd
       0.03298949 -0.014034099 -0.020963287 -0.036596436
0002d0 96 10 25 3c 04 29 3c bd 0b 40 f7 bb af d5 83 bd
       0.010074755 -0.045937553 -0.0075454763 -0.06437241
0002e0 75 0b 8c bd 70 5f 98 3b f0 cf f8 3c 81 87 0b 3d
       -0.06838123 0.004650049 0.03037259 0.034064773
0002f0 ff df fa bc 5a 17 b4 bc 5e d7 6f 3c c2 85 64 bd
       -0.030624388 -0.021983791 0.01463875 -0.055791624
000300 56 b1 f0 bc a4 87 6a 3d f9 c9 90 bc 1a 76 23 bc
       -0.029381435 0.057258263 -0.017674433 -0.009976888
000310 8a 65 54 bd 8d c8 7b bb c2 58 66 bd e6 f9 65 3c
       -0.051854648 -0.0038419098 -0.05623699 0.014036631
000320 ae ba a1 3c 83 32 79 bd 79 ae 1b bd 54 12 21 bd
       0.019742336 -0.060839187 -0.038008187 -0.03932412
000330 71 a3 21 bd 11 82 3a bd a0 86 b7 bc 0e 12 5a 3a
       -0.03946251 -0.045534197 -0.022403061 0.00083187304
000340 43 c5 22 bd 76 16 93 bc 93 5d 1b bd ae 70 19 bd
       -0.039738905 -0.017955046 -0.037931036 -0.037460975
000350 b8 e4 f0 bc 8d 57 bd bc 85 dd 64 bd fe b2 30 bd
       -0.029405937 -0.023113037 -0.05587532 -0.04313945
000360 ee b3 47 bd ef 57 4b 3d fe 79 9b bd a0 28 7e bd
       -0.04875558 0.049644407 -0.075916275 -0.06205046
000370 25 3a 99 bb 77 8b 3a bc 28 40 cd bb 41 c0 bc bd
       -0.004676121 -0.01138579 -0.0062637515 -0.09216357
000380 45 72 38 ba f2 31 42 bd 37 65 64 bd 02 ea 66 bd
       -0.00070360705 -0.047410913 -0.05576059 -0.05637551
000390 a6 d2 6d bc f7 82 5c bc b9 93 f2 3c 0e f9 08 bd
       -0.0145155545 -0.013458959 0.029611455 -0.033440642
0003a0 94 1c 83 bd f8 03 ed bc 65 9a 55 bd 74 f3 34 bd
       -0.06401935 -0.028932557 -0.052149195 -0.044177487
0003b0 c4 3f 65 bb eb 21 35 bc fe 2b d9 bc 2d 36 cb bb
       -0.0034980634 -0.01105545 -0.026510235 -0.0062015266
0003c0 ca 28 70 bd e1 ed 12 bc 97 b0 5c bd de 61 cc bc
       -0.05863265 -0.008967848 -0.053879347 -0.02494901
0003d0 84 ef 20 bd 8f 8a 96 bd ae 9e 4b bd 7a 81 8f bd
       -0.03929092 -0.07350647 -0.049711876 -0.070071176
0003e0 01 ef 66 bd c9 e6 10 bd dc 17 03 3d 64 49 15 3d
       -0.056380276 -0.035376344 0.032005176 0.036446944
0003f0 ee 2a 06 bd c2 f0 8a bd ae c1 94 bc 29 7a 73 3d
       -0.032755785 -0.06784202 -0.01815876 0.059442673

fc1.bias f4 [50]
000000 d4 f0 ff bd c5 87 02 40 f1 5c b0 bd ce 3a f9 3f
       -0.12497106 2.0395367 -0.08611477 1.9471071
000010 61 10 92 be 05 c2 48 be 23 ee 01 be 6b 1e 70 be
       -0.2852812 -0.19605263 -0.12688498 -0.23449104
000020 1f 86 31 be af 27 91 3f 22 0f 0a 40 ce fb b5 3f
       -0.1733632 1.1340235 2.1571736 1.421747
000030 e5 9e 0f 40 3c 3f 06 bf 3d 8a 93 3f d1 9a 0c 40
       2.2440732 -0.5244024 1.1526562 2.1969492
000040 fd 6d c1 3f ae 68 b6 be bd 42 6b bb 49 61 de bd
       1.5111691 -0.3562674 -0.0035897933 -0.108583994
000050 94 0c ef 3f 14 3b 9f 3f f4 78 ae 3f ce 10 0d 3f
       1.8675714 1.2439904 1.3630662 0.55103767
000060 eb 04 ca bc d1 e5 22 bd 87 f5 db 3f f7 8a 1c 40
       -0.024660548 -0.03976995 1.7184304 2.4459817
000070 a8 c5 02 3f d8 d5 71 bd df 40 da 3f 00 32 a6 3f
       0.5108285 -0.059041828 1.7051047 1.2984009
000080 e8 27 35 40 08 54 45 3f 92 7f c6 bd 00 94 61 3f
       2.8305607 0.77081347 -0.09692301 0.88116455
000090 43 32 34 40 f6 65 38 3f 3d d9 e1 3e 96 3e 91 bd
       2.8155677 0.7203058 0.44111052 -0.070920154
0000a0 cf 5a aa bc 07 d0 08 be cc a4 1c be 17 8b 8d be
       -0.020795254 -0.13360606 -0.1529724 -0.2764518
0000b0 5e e1 1f be 95 4f 62 40 54 16 bb 3f 3f 1a 34 be
       -0.15613315 3.5361073 1.4616189 -0.17588137
0000c0 94 54 92 3d cf ec f7 ba
       0.07145038 -0.0018915179

fc2.weight f4 [7, 50]
000000 20 c6 5c 3d 0a 9a 98 be ba 3d 50 bd b7 6c fb 3d
       0.053899884 -0.29805022 -0.050840117 0.12276595
000010 78 7f c2 bc fa f7 4b 3e e4 88 66 3d b3 f5 b0 bd
       -0.023742422 0.19918814 0.056282893 -0.086406134
000020 6b 56 99 bc d3 8d 5c be 40 0a 85 3d 2c 87 ee bd
       -0.018717965 -0.21538477 0.06496096 -0.11646876
000030 cf 42 61 be 0b 3d 5b be b2 f9 06 bf 2c 8e 84 bd
       -0.21998142 -0.21410005 -0.52724755 -0.0647243
000040 f4 ce 49 bd 76 72 bf 3d ac 5e 20 bd f6 de fc 3d
       -0.04926963 0.093480036 -0.039152786 0.12347214
000050 8a 02 39 be 29 41 f6 be bd 07 d7 be 29 0e ae be
       -0.18067375 -0.48096588 -0.4199809 -0.33995178
000060 c1 d3 e1 bd d6 42 02 be f6 50 44 bc 22 5a ae 3e
       -0.11026717 -0.12720808 -0.011982193 0.3405314
000070 06 a4 af bd 5d 5f 63 bd e5 04 21 be 80 f9 07 bf
       -0.08576207 -0.055510867 -0.15724523 -0.5311508
000080 7a 07 80 3e c6 be 22 bf 5a 0e 54 bd d5 c1 c9 be
       0.25005704 -0.6357235 -0.0517715 -0.39405695
000090 ee 74 33 bd f6 dd e0 bd 77 e8 2d 3d 06 26 94 3d
       -0.043812685 -0.10979836 0.042458024 0.07233815
0000a0 67 07 e9 bd 87 97 c6 bd 5c a4 60 bc 21 f4 d1 3e
       -0.11378365 -0.0969687 -0.013711061 0.41006568
0000b0 75 f6 a6 bd d7 fd 35 3e 51 8a 8e bd 2d 6b 4c bc
       -0.08152477 0.17772613 -0.069599755 -0.012476725
0000c0 ac 2f 83 bd 2b 60 a4 bd 7d 59 c0 bd 25 aa 19 bf
       -0.06405577 -0.08026155 -0.093920685 -0.60025245
0000d0 59 ed 11 bd 05 46 c6 be 80 8d 30 bb 5e aa 25 bd
       -0.035626743 -0.38725296 -0.002693981 -0.040445678
0000e0 24 58 b1 bd b0 d8 15 bd b5 45 39 bd 69 4a 71 be
       -0.086593896 -0.036583602 -0.045232493 -0.23563541
0000f0 43 bf 4b bd 28 c5 63 3f 7a 98 68 be b1 cf 90 be
       -0.04974295 0.8897271 -0.22714415 -0.28283456
000100 b3 da 5e bf 64 38 32 be 6f c0 03 3f db 55 33 3d
       -0.8705246 -0.17404324 0.51465505 0.04378305
000110 6e a5 07 bc 82 aa b6 3d 70 a0 11 bf f6 c2 40 bf
       -0.008279188 0.089192405 -0.56885433 -0.75297487
000120 c6 8f ab 3d 69 20 cb be ec 70 00 be 46 41 b1 3d
       0.08377032 -0.39673164 -0.12543076 0.08655028
000130 e7 63 24 bf 2c 66 b7 be c2 35 c1 bd f3 e3 6f bd
       -0.6421494 -0.35820138 -0.094340816 -0.058567
000140 8c 40 8f 3e d0 de 23 bf ff f8 c4 3e bc 41 81 bd
       0.27978933 -0.6401186 0.3847122 -0.06311366
000150 27 d6 79 bd 3c 89 4e bf be 5b 39 be 03 6a d9 3d
       -0.060995247 -0.80678153 -0.18101403 0.10615923
000160 d0 2a b4 be 1d b2 71 bd d6 7d 0f be 36 fa a1 bc
       -0.35188913 -0.059007753 -0.14012846 -0.01977263
000170 3b d0 92 3d 35 a1 be 3d ae 59 e2 3d 58 7d d0 3e
       0.07168623 0.093080916 0.11052261 0.4072063
000180 26 34 a6 be c8 81 7d bd a1 81 95 be 88 e8 d9 bd
       -0.3246166 -0.061891347 -0.29200462 -0.10640055
000190 1a 53 40 bd 54 ea 4e be 93 3a 24 3d 2d 20 77 bd
       -0.04695425 -0.20206577 0.040094923 -0.06033342
0001a0 36 c8 42 be 00 35 76 bd de 22 c8 3d f6 ff 04 be
       -0.19021687 -0.06010914 0.097722754 -0.12988266
0001b0 e6 34 91 3d ea 1d 07 be f9 ae db bd 58 d0 cf bd
       0.07090168 -0.13195005 -0.10726733 -0.1014716
0001c0 c7 b6 e1 bc 21 41 64 3e a8 69 9a be 71 42 4f be
       -0.027552975 0.2229047 -0.30158734 -0.20240189
0001d0 f7 18 18 be 66 8e b3 be 49 d6 47 bc cf 3b eb bd
       -0.14853273 -0.3506958 -0.012197086 -0.11486017
0001e0 a9 33 e0 3d 00 e2 8c 3e 69 f1 9b be 95 85 ef bd
       0.109473534 0.27516174 -0.3045762 -0.116954006
0001f0 77 9a 2f bd da 8e 99 bc 1d 05 21 be 3f 76 f1 bc
       -0.04287192 -0.018744875 -0.15724607 -0.02947533
000200 9f 34 a6 3e 8c 35 37 bc fa 34 98 3c 2b 0b 02 bf
       0.32462022 -0.0111822 0.018579949 -0.5079829
000210 1c 2c 7e 3d e3 ce d5 be a7 7b b2 bd 77 6f da be
       0.062053785 -0.41759405 -0.08714991 -0.42663166
000220 67 3e 73 bd 03 01 82 3e 61 56 0f be e3 ad 5e 3d
       -0.059385683 0.25391397 -0.13997795 0.05436505
000230 fa 86 da bd ee 79 df bc 02 2c 50 3d 79 84 13 3e
       -0.10670276 -0.02727982 0.05082322 0.14406003
000240 2a 38 c6 bd f0 dd eb bc d2 00 65 bd 96 d5 bb 3d
       -0.09678681 -0.028792351 -0.055908985 0.09171598
000250 87 c0 94 bd 42 0f a4 3d 63 4e 7f bd a4 4c 29 be
       -0.07263284 0.08010723 -0.062330615 -0.16533142
000260 69 40 f7 3c 0a 0c 1a bd 6e 8b 96 3d 9b c8 85 bc
       0.03018208 -0.037609138 0.07350813 -0.016331008
000270 8e 91 3b bb 87 36 11 be a1 4f 43 3d b5 8b 97 3e
       -0.0028620693 -0.14180957 0.047683362 0.29598776
000280 96 48 80 be ba f8 18 be f2 68 e5 bd f9 f1 14 be
       -0.2505538 -0.14938632 -0.11201657 -0.1454543
000290 d8 4c 27 bf 2e a1 9a 3e 3e d3 02 3d d0 b9 32 3d
       -0.6535163 0.30201095 0.031939737 0.043634236
0002a0 62 5c 31 bb 04 17 81 bd 7f 7f 9f be 52 69 bc be
       -0.002706312 -0.06303218 -0.3115196 -0.36799103
0002b0 83 71 76 be ff 9c 8a be 2c 8f ea 3d 8d 21 0e bc
       -0.24066739 -0.27072904 0.11453089 -0.008674991
0002c0 c1 b5 91 3e 9f c4 07 be 1c ff cb bd 87 f9 30 bd
       0.2845898 -0.13258599 -0.099607676 -0.043206718
0002d0 25 f8 6c be 8c f2 da be 27 3c e5 be a6 87 01 bf
       -0.23141535 -0.42763174 -0.44772455 -0.5059761
0002e0 32 28 9c bc 6e 27 07 bf e2 a1 a2 be a1 8e 94 3c
       -0.019062135 -0.5279454 -0.31764132 0.018134417
0002f0 aa 29 fc be ec f4 36 bd ce 1c cb bc 9c a9 af bd
       -0.49250537 -0.04466717 -0.024794009 -0.08577272
000300 35 16 27 bc 69 18 01 bd 7c 2a ec bd b6 e2 83 bd
       -0.010198166 -0.03151742 -0.11531541 -0.06439726
000310 18 d4 39 be 0d 06 ee bd b6 66 b3 3e ca da f2 3d
       -0.18147314 -0.11622248 0.350393 0.11858137
000320 4b 36 58 bc 46 57 88 be 8f 83 38 bd d0 f1 16 3b
       -0.013196538 -0.26629084 -0.04504734 0.0023032315
000330 c0 40 05 3c f3 ae fc bd cd fe 19 3d 82 de 2a 3e
       0.008133113 -0.123380564 0.037596513 0.16686442
000340 d5 60 4e 3d ce b0 2c be 1d 53 b1 be f2 7d a1 be
       0.050385315 -0.1686432 -0.34633723 -0.315414
000350 6e 3a 23 be e3 af 00 be cd d2 dd bd 2f 5a 12 be
       -0.15940258 -0.12567095 -0.10831223 -0.14292215
000360 bf ee b1 bc 34 b6 03 bd 0a 9b bb 3d b0 f7 6f be
       -0.021720288 -0.032156184 0.09160431 -0.23434329
000370 58 e0 24 3e 71 4e e6 be f4 27 d7 bc 09 27 a9 3d
       0.16101205 -0.4498172 -0.026264168 0.082593985
000380 06 fb 4b bd e4 f3 8d 39 aa e0 2c be 70 7a 0c be
       -0.04979994 0.00027075328 -0.16882578 -0.13718581
000390 aa 0f bd 3d c7 16 7d bd d3 1d 80 3e 22 70 e8 be
       0.09231503 -0.0617893 0.25022754 -0.4539805
0003a0 5a bd 0e bd 9f ca 11 bf c7 0b ba 3d d4 5c e3 3d
       -0.03484855 -0.569498 0.090842776 0.1110169
0003b0 87 8f c6 3d ab e9 49 3d 51 c0 08 be 3b d9 ca bd
       0.096953444 0.04929511 -0.13354613 -0.09904715
0003c0 3c d9 89 bd 88 48 8d bc e1 45 18 3c 9b 14 0a be
       -0.06730887 -0.0172465 0.009294004 -0.13484423
0003d0 3b f5 f0 bd 14 8a 27 3e 98 71 7c 3e a9 fe 4b bd
       -0.11765524 0.16361266 0.24652708 -0.04980341
0003e0 f7 5d 94 bc 96 df 69 bd 0e d3 34 3d 20 88 f4 be
       -0.018111212 -0.057097994 0.04414659 -0.47760105
0003f0 4d 7c db 3d 1a 51 e6 be bd e3 cd 3c 92 0b 29 be
       0.10717068 -0.4498375 0.025133008 -0.1650832

fc2.bias f4 [7]
000000 ba 8f 3e bf ce 6b 4c c0 32 b9 68 3e 6e ec 6b 3f
       -0.7443806 -3.1940799 0.22726896 0.9215764
000010 b8 77 ef be f0 02 32 3f 50 e5 9d 3e
       -0.46771026 0.6953573 0.30839014

localization.0.weight f4 [8, 1, 7, 7]
000000 95 b5 17 3e d0 56 46 bc 13 1d 76 3d 68 93 88 bb
       0.14815362 -0.012105659 0.06008632 -0.004167963
000010 0e 01 a8 bd b7 e7 50 3d 58 ab 6e bd 9b e7 d6 3c
       -0.08203326 0.05100223 -0.058268875 0.026233485
000020 60 68 a1 bc a5 ba 11 bc 3e 6d fb 3d ee 05 2f bc
       -0.01970309 -0.008894597 0.12276696 -0.010682566
000030 71 e2 85 3c 68 0d fa 3d c1 2c 38 3d ab 0a 15 3e
       0.016343327 0.12209588 0.044964556 0.14554851
000040 2e a2 89 3d df b7 a6 bd 2c 26 f8 3d 8c 81 13 3e
       0.067203864 -0.081405394 0.12116656 0.14404887
000050 00 ba d0 3d a8 29 a6 bd cc 45 1b 3e dc 83 81 3d
       0.10191727 -0.08113414 0.15163344 0.06323978
000060 ac be d0 3d 6a ee aa 3d 8d b8 2c bd d3 36 3f 3d
       0.10192618 0.08346255 -0.04216819 0.046683144
000070 b2 f5 c2 3d 2e 11 a0 3d 1a 8b 39 3e 71 e7 26 bd
       0.09519519 0.07815777 0.1811947 -0.040748063
000080 d4 c5 0b 3e 6e 0b 2c 3d 1a c9 2d 3e 76 2f 27 bd
       0.13649684 0.042003088 0.16971245 -0.040816747
000090 93 23 3f bd 3b 6f c9 3d 5a 27 c2 3c 81 d0 64 bd
       -0.046664786 0.09835669 0.023700405 -0.055862907
0000a0 ff 6c 26 3e b1 79 15 bd 92 56 87 bc fa 82 2c 3e
       0.16252516 -0.036493007 -0.016520772 0.16846839
0000b0 63 42 b5 bd 7c f3 6b bd bf 25 02 bd 52 84 26 3e
       -0.08850553 -0.05760525 -0.03177428 0.16261414
0000c0 23 7c 7d bd 1f 6d fa bd f8 db a6 bd ad c9 7b bd
       -0.061885964 -0.122278444 -0.081474245 -0.06147163
0000d0 46 d7 06 be c4 ef 2e bc cd 01 8d bd f4 2e fb 3c
       -0.13168058 -0.010677282 -0.06885109 0.030662037
0000e0 e7 e5 ad bd 23 7e c4 bd f7 40 0f 3d 86 3d e6 3d
       -0.08491116 -0.09594371 0.034974065 0.112422034
0000f0 9d ec 04 3e 8b a7 07 3e 97 b0 e0 3d 3a 20 93 bd
       0.12980886 0.13247506 0.10971182 -0.07183881
000100 ed d7 fe 3a 3a 72 95 3d 8a d2 17 be 7b f6 62 3d
       0.0019443013 0.072971776 -0.14826408 0.055410843
000110 b0 75 b4 bd ed 58 ba 3c 2e 0b b5 bc 5f ee b7 bc
       -0.088115096 0.022747481 -0.022100057 -0.022452531
000120 f9 9a af 3d 47 ce d9 3c a1 b3 61 bd 84 60 aa bd
       0.085744806 0.026587619 -0.055102948 -0.0831919
000130 50 a3 0c be a3 b7 2c 3d d4 62 bb 3d d8 65 e2 3d
       -0.13734174 0.042167317 0.09149709 0.110545814
000140 73 03 ff bd 07 2a cd 3d a1 3f 0b 3d 62 d8 16 3d
       -0.1245183 0.10017782 0.033996228 0.036827452
000150 f3 4a 83 bd 40 33 cc bd 3c db f5 3d 2d 34 86 3d
       -0.0641078 -0.09970713 0.12004706 0.065529205
000160 50 99 1d 3d 61 ca 6f bd dc 26 80 bd 88 48 e3 3d
       0.03847629 -0.058542613 -0.06257412 0.110978186
000170 7c e5 f5 3c 81 30 de 3d 31 e9 ed bd a6 fc 8a bd
       0.030016653 0.10849095 -0.11616743 -0.0678647
000180 43 ea 96 bd b3 85 b8 bb 28 1b 69 3b 4c b1 0e be
       -0.073689006 -0.0056311726 0.0035569165 -0.13934821
000190 ac 56 b4 bd f2 11 b2 bd ef f8 94 bc 33 a4 fd bd
       -0.08805594 -0.08694829 -0.018185107 -0.12384834
0001a0 5b 94 96 3d c5 e1 85 bc 8c cc 3f 3d 4d b7 83 bd
       0.07352515 -0.016343007 0.04682593 -0.06431446
0001b0 26 51 d4 bd a0 0f 3d bd a3 48 9d bd 7d bf b1 3d
       -0.1036704 -0.04615748 -0.0767987 0.086791016
0001c0 31 ee b4 3d 13 b0 0d be 54 27 22 3d 8f d8 5a bd
       0.08834494 -0.13836698 0.039588287 -0.053429183
0001d0 89 0d bc 3d 02 3b 08 be 2e 60 58 bd eb 89 a4 bd
       0.09182269 -0.1330376 -0.0528261 -0.08034118
0001e0 a3 fd 5b 3b e1 59 00 bd da 4c ae 3c d3 4a ae 3d
       0.0033567927 -0.031335715 0.02127688 0.08510365
0001f0 6e fd 52 bc 39 de 4b bd 90 b6 1d 3d 15 5c d5 3d
       -0.012877805 -0.049772475 0.038504183 0.10417954
000200 85 37 1d be 44 8e 89 bc 6d 2d 1c be 99 9d ce 3d
       -0.1535321 -0.01679147 -0.15251704 0.10088653
000210 84 b6 d8 bd de 3b 44 3d c5 4d 79 3d dc d2 9e 3c
       -0.10581687 0.047908656 0.060865182 0.019387655
000220 a3 05 eb 3d d7 8d 05 be 51 37 65 3c 64 bf 9c 3c
       0.114756845 -0.13042389 0.013990239 0.01913423
000230 e0 ee bb bd e8 f8 76 3d 78 88 f0 bc 17 91 6b 3d
       -0.09176421 0.06029597 -0.029361948 0.057511415
000240 84 ec 5e 3d 72 69 c5 3d 99 a1 8d bd 37 11 cd bd
       0.054424778 0.09639253 -0.06915588 -0.10013049
000250 ec 23 d7 3d e7 be 28 bd 5b f0 ba 3c 74 7f 95 bd
       0.105048984 -0.041197684 0.022819689 -0.072997004
000260 d2 ca bf 3d 77 f6 10 be fe 8f 67 3d a4 86 89 bd
       0.09364857 -0.14156519 0.056533806 -0.06715134
000270 cb 51 a1 bd 9d 79 1e be 69 b7 96 bc 50 60 77 3c
       -0.07876929 -0.1547608 -0.018398004 0.015098646
000280 14 f0 0e bc 42 9f c6 3d d4 09 da bc cb 39 31 bd
       -0.008724231 0.09698345 -0.026616015 -0.043268006
000290 00 41 74 bd 9f e4 b0 3d 56 41 fa bd af 41 9e 3d
       -0.0596323 0.08637356 -0.12219493 0.07727372
0002a0 8f 7d 9c 3c 54 a9 d7 bd 51 42 02 be 0d 95 aa bd
       0.01910284 -0.10530344 -0.1272061 -0.083292104
0002b0 4e ee e0 bd 79 d0 92 bd a0 63 08 3d 06 e3 c4 bd
       -0.10982953 -0.07168669 0.033298135 -0.09613614
0002c0 0b 1d e5 3d f8 e2 b2 bc 6e ad 65 3d 81 95 09 3d
       0.1118718 -0.021836743 0.0560736 0.033589844
0002d0 09 37 5f 3d 3a 0a fa bc d6 db 71 3d eb 1c 14 bd
       0.054495845 -0.030522455 0.059047543 -0.03616039
0002e0 59 b1 ea 3c cf a9 79 bd ab ec b7 bd bc 74 45 bd
       0.02864902 -0.060952958 -0.08980688 -0.04820703
0002f0 96 99 77 bd 05 97 67 bd a4 1e 24 bd 88 19 27 3d
       -0.060449205 -0.056540508 -0.040068284 0.040795833
000300 9e b0 31 bc 94 30 b2 3c 6d ad 04 be ca c0 4c 3c
       -0.0108453315 0.02175168 -0.12956782 0.012497136
000310 15 68 a6 bd 7c f2 b1 bd e1 98 e4 3d 42 2d 2b bd
       -0.08125321 -0.08688828 0.11161972 -0.041791208
000320 19 d5 05 be 14 32 22 be 40 e3 69 bd 2d 88 65 bc
       -0.13069572 -0.15839416 -0.057101488 -0.014009518
000330 fc 4a 31 bd b6 15 3f 3d cd d6 ab bd 23 36 e3 bd
       -0.0432844 0.046651565 -0.083905794 -0.1109431
000340 2f 6f b1 bd 23 c9 a8 bd b3 0d 83 bd 83 61 8d bd
       -0.08663785 -0.08241489 -0.06399097 -0.069033645
000350 ef 5c 81 bd c0 25 21 bd 24 3f 18 be 94 77 02 be
       -0.06316554 -0.03934264 -0.14867836 -0.12740928
000360 f0 8d 0e 3d 58 f5 7c 3d 7e 9e a6 3d 72 53 89 3d
       0.03480333 0.061757416 0.08135699 0.06705369
000370 0c d1 c4 bd 53 ba 01 be 22 b6 bc 3b 7f ab 45 3d
       -0.09610185 -0.12668733 0.0057590166 0.048259255
000380 94 98 0b 3d 6c 9a a6 bd e2 59 8b 3d 1b e6 e2 bd
       0.034081057 -0.081349224 0.06804253 -0.110790454
000390 06 19 90 bc 51 0d 30 bd 63 29 a1 3d 29 d6 8e bd
       -0.017590057 -0.04298145 0.07869222 -0.069744416
0003a0 af d3 c8 3c e1 f5 75 bd be ca 22 be 32 3e 08 3b
       0.024515001 -0.06004894 -0.15897653 0.0020789024
0003b0 44 41 18 be b6 0a 45 be 3e 84 8a bd aa 5d 1c be
       -0.14868647 -0.19242367 -0.067635044 -0.15270105
0003c0 91 05 15 be b2 18 b3 3d 23 57 b4 3d 80 89 c5 bd
       -0.14552905 0.08744945 0.088056825 -0.09645367
0003d0 3d 3c cd bd b6 71 48 bd be b6 18 bd e1 b9 dc bb
       -0.10021255 -0.04893657 -0.03728365 -0.0067360257
0003e0 b6 4c 7d 3d bd 8e 22 3d 3a 72 88 3d 0e f8 c7 3d
       0.061840735 0.039686907 0.06662412 0.097641096
0003f0 c1 bb 1e 3c 37 5d 17 3e c9 5c 94 bc fe c0 16 3e
       0.009688319 0.14781652 -0.01811065 0.14722058

localization.0.bias f4 [8]
000000 95 97 36 3d 89 b5 8d 3c 1d 4c 96 bd 0d 99 15 be
       0.044578154 0.017298477 -0.07338736 -0.14609165
000010 5f d5 50 bd 6b 0d da 3d 44 e5 2c 3e b8 55 54 bd
       -0.050984737 0.106470905 0.16884333 -0.05183956
